…
e_uri":"https://localhost:8080/"},"executionInfo":{"elapsed":64,"status":"ok","timestamp":1682588076971,"user":{"displayName":"Rohit Kumar Gautam iiitu","userId":"04340717392712331458"},"user_tz":-330},"id":"vHu2Iwh__Rnb","outputId":"809f2281-fb61-43f7-d7ef-5a1ae253eaef"},"outputs":[{"output_type":"stream","name":"stdout","text":["Model: \"sequential_2\"\n","_________________________________________________________________\n"," Layer (type)                Output Shape              Param #   \n","=================================================================\n"," sequential (Sequential)     (32, 256, 256, 3)         0         \n","                                                                 \n"," conv2d (Conv2D)             (32, 254, 254, 32)        896       \n","                                                                 \n"," max_pooling2d (MaxPooling2D  (32, 127, 127, 32)       0         \n"," )                                                               \n","                                                                 \n"," conv2d_1 (Conv2D)           (32, 125, 125, 64)        18496     \n","                                                                 \n"," max_pooling2d_1 (MaxPooling  (32, 62, 62, 64)         0         \n"," 2D)                                                             \n","                                                                 \n"," conv2d_2 (Conv2D)           (32, 60, 60, 64)          36928     \n","                                                                 \n"," max_pooling2d_2 (MaxPooling  (32, 30, 30, 64)         0         \n"," 2D)                                                             \n","                                                                 \n"," conv2d_3 (Conv2D)           (32, 28, 28, 64)          36928     \n","                                                                 \n"," max_pooling2d_3 (MaxPooling  (32, 14, 14, 64)         0         \n"," 2D)                                                             \n","                                                                 \n"," conv2d_4 (Conv2D)           (32, 12, 12, 64)          36928     \n","                                                                 \n"," max_pooling2d_4 (MaxPooling  (32, 6, 6, 64)           0         \n"," 2D)                                                             \n","                                                                 \n"," conv2d_5 (Conv2D)           (32, 4, 4, 64)            36928     \n","                                                                 \n"," max_pooling2d_5 (MaxPooling  (32, 2, 2, 64)           0         \n"," 2D)                                                             \n","                                                                 \n"," flatten (Flatten)           (32, 256)                 0         \n","                                                                 \n"," dense (Dense)               (32, 64)                  16448     \n","                                                                 \n"," dense_1 (Dense)             (32, 3)                   195       \n","                                                                 \n","=================================================================\n","Total params: 183,747\n","Trainable params: 183,747\n","Non-trainable params: 0\n","_________________________________________________________________\n"]}],"source":["model.summary()"]},{"cell_type":"code","execution_count":24,"metadata":{"id":"uH8
…
